birds5species.tflite (tflite, 446016 bytes, 20 tensors)

arith.constant f4 [32]
000000 46 e2 9a be b4 71 ae bd 0b 55 84 bd 82 fe 02 3d
       -0.30250758 -0.08517781 -0.06461533 0.031981
000010 ec 45 83 3e 27 5b ac 3c c9 05 a5 bd 63 c4 b2 bd
       0.25639284 0.021039559 -0.08057744 -0.08728864
000020 26 7a cf 3d cb f3 10 3e 9c f7 12 3e 93 4e ae be
       0.1013072 0.141555 0.14352268 -0.34044322
000030 86 51 20 be a1 bd 45 be bf 12 01 be 92 5d 22 3c
       -0.15656099 -0.19310619 -0.12604807 0.009910004
000040 26 e3 4e 3a 1b 25 c1 be 61 86 7a bd 91 3c be be
       0.0007892124 -0.37723622 -0.06116331 -0.37155584
000050 99 8b f3 bd a4 44 2a bd 7f 24 e5 3d d7 47 21 3e
       -0.118918605 -0.041569367 0.11188602 0.15750061
000060 f7 85 f1 bd 75 e2 cc bd 3b 10 47 3e 3d a6 2b bd
       -0.1179313 -0.10004131 0.19439785 -0.041906584
000070 95 19 9a bd 5d bd 8a be 6a 4c 51 3e 60 34 77 3d
       -0.07524411 -0.27097598 0.20439306 0.060352683

arith.constant1 f4 [32, 3, 3, 3]
000000 b2 64 58 3e 49 eb be be f0 c3 8b 3d 6a 4c 37 3e
       0.21132162 -0.37288883 0.068244815 0.17900243
000010 c4 54 95 be d8 77 74 3d 35 22 41 bd ea 70 c9 be
       -0.29166234 0.059684604 -0.047151763 -0.3934396
000020 c9 6f 7b 3e 44 11 d1 3e 2d 21 f0 be da b4 07 3c
       0.24554361 0.40833485 -0.4690031 0.0082828645
000030 bd 78 ec 3e 54 e9 cd be 1c 45 44 3e b8 99 a2 3e
       0.46185866 -0.40217078 0.19166988 0.31757903
000040 97 90 e4 be eb c4 ed 3c 78 b5 42 3e dd 15 fe be
       -0.44641563 0.029024562 0.19014537 -0.49626055
000050 1b 8c 45 3d ea 89 a2 3e cd a0 f3 be 4a fb 0c 3e
       0.048229318 0.31745845 -0.4758362 0.13767734
000060 36 e4 a0 3d cc 60 b7 be 50 d3 ca 3d 60 85 17 be
       0.07856028 -0.35816038 0.09903586 -0.14796972
000070 fc 34 07 3d 3e 2b 3f bd c3 c3 5a 3d 25 46 8c 3d
       0.033009514 -0.0466721 0.05340935 0.068493165
000080 09 b3 34 bd 46 dc 2f be 1b 0f a1 3d e5 09 1d be
       -0.044116054 -0.17173871 0.07864209 -0.15335806
000090 4a 8e e0 bd 81 fc 9b bd 96 1f 96 bc a1 23 3e 3d
       -0.109646395 -0.07616521 -0.018325608 0.046420697
0000a0 7c 98 15 be 00 dd 21 be 05 ec dc bc 53 06 b1 3d
       -0.1460895 -0.15806961 -0.026968012 0.086437844
0000b0 21 5b 64 3c 8c 45 df bd 97 e9 97 bd 37 d2 a1 bd
       0.013937742 -0.10901937 -0.074176006 -0.079014234
0000c0 fa f5 08 3d 9f 80 30 bd 88 e4 d5 bd c1 e0 67 bd
       0.033437707 -0.043091413 -0.104439795 -0.056610826
0000d0 33 a7 21 be 6a 2f 29 be 45 4f 3f be 14 7f 70 bd
       -0.15786438 -0.16521993 -0.18682583 -0.05871494
0000e0 15 b1 44 be 1b 9e e1 3d 04 54 bc 3d 99 17 47 3e
       -0.19208176 0.11016484 0.09195712 0.19442596
0000f0 2c 52 d2 3d 5d 5a ee bd 4b 3a a0 3d ce dd 38 3d
       0.10269579 -0.11638329 0.078236185 0.045133404
000100 30 2e 8d bd a7 e2 b1 bd af 54 81 3d 81 74 ff bd
       -0.06893575 -0.08685809 0.0631498 -0.12473393
000110 70 9f 06 be 35 65 31 be 6b 69 c7 3c 84 da 1c be
       -0.13146758 -0.17323764 0.02434226 -0.15317732
000120 d1 d0 14 bd d0 0f 31 bd 54 c0 da bd 48 19 58 be
       -0.036331955 -0.04322797 -0.10681215 -0.21103394
000130 28 94 31 be a1 6b cf bc 1d 47 e7 bc ab 11 04 be
       -0.17341673 -0.025319876 -0.028232152 -0.12897365
000140 fa 8a 76 be db 59 f3 bd 8d ad 0d be d3 88 a7 bd
       -0.24076453 -0.11882373 -0.13835736 -0.08180394
000150 51 12 2f 3e 3b 36 b0 bd af 49 1e bd f9 0c 85 3e
       0.17096831 -0.08604094 -0.03864449 0.2598646
000160 cb e2 a0 3d c6 32 4a be 04 69 9b be c2 cc 14 be
       0.07855757 -0.19745931 -0.30353558 -0.14531234
000170 ed 7d 49 be 8e a6 1c 3e 50 1f 3c bc f3 2e 8d 3e
       -0.19676943 0.1529791 -0.011482075 0.27574882
000180 5b 87 3b 3e ee ac 8a be a6 69 9b be 36 b1 db bd
       0.18313353 -0.2708506 -0.3035404 -0.1072716
000190 c7 b2 d6 3d 0b ca c4 3e f1 7c 90 3d cd d6 8f 3e
       0.10483318 0.38435397 0.07055081 0.28093567
0001a0 60 b2 f2 3e 75 4e a8 be b9 a6 04 bf 35 3e fa be
       0.47401714 -0.32872358 -0.518169 -0.48875585
0001b0 2e 42 40 3e 35 27 10 bd 06 20 89 be 3f d9 94 3e
       0.18775246 -0.03519364 -0.26782244 0.29071996
0001c0 7c cf b4 bd bc 2d 3d be 1e 32 10 3e 2f 04 d5 3c
       -0.08828637 -0.18474478 0.14081618 0.026002971
0001d0 24 4c e1 bd f7 14 83 3e ee f9 b7 3b d9 35 de be
       -0.11000851 0.25601932 0.0056145107 -0.43400458
0001e0 93 b3 0e 3f 46 15 40 bd 01 2d 15 bf 4a 43 80 3e
       0.5574276 -0.046895288 -0.58271796 0.25051337
0001f0 05 4e c1 bd 4e c4 8d be 07 23 a8 3e af b5 4c be
       -0.09438709 -0.2768883 0.32839224 -0.19991182
000200 f8 a8 80 be 4a 1b c7 3e 2f b7 c3 bb bc ce 00 bf
       -0.25128913 0.38888007 -0.005972765 -0.5031545
000210 45 79 76 3e 10 d9 1a 3c 1f ec 8d be d4 31 f2 3e
       0.24069698 0.009451166 -0.2771921 0.4730364
000220 02 87 8a 3e b0 31 08 3e c4 3b 9c 3e 05 14 13 3e
       0.27056128 0.13300204 0.30514348 0.14363106
000230 aa 0b ea 3d 4c 45 98 bd ae 03 8d 3c 98 56 47 be
       0.11428006 -0.07435092 0.017213669 -0.19466627
000240 19 3d 0a 3f f9 2d a7 3e 14 90 74 3e 6b a2 2d 3e
       0.5399948 0.32652262 0.23883086 0.16956489
000250 b4 d2 7e 3e 68 b7 32 3e a4 40 8c bd dc 8c 79 be
       0.24885064 0.17452776 -0.06848267 -0.2437014
000260 c1 31 9a be e9 d4 21 3d e4 ef 19 be 26 7c b9 bb
       -0.30116084 0.039509688 -0.15032917 -0.0056605516
000270 1c 22 18 be 0b ed 23 be 5a e5 00 be 05 06 0b bf
       -0.14856762 -0.16008393 -0.1258749 -0.5430606
000280 2b cd 14 bf 34 26 99 be 8b 6b d4 bd 82 c9 0b be
       -0.5812556 -0.2991196 -0.10372075 -0.13651088
000290 d1 38 29 3d 8a 4c c7 bd 20 52 54 3d 12 74 27 bd
       0.04131395 -0.097313955 0.051836133 -0.040882178
0002a0 c3 6c 30 be 3f 77 56 3d d3 93 28 be 87 5b 2a bd
       -0.1722899 0.052359816 -0.1646264 -0.041591194
0002b0 71 80 f4 3c e7 29 b6 bd 2b 93 cb 3c e8 1d 7e 3d
       0.029846402 -0.08894711 0.024850449 0.06204024
0002c0 89 85 84 bd 5f 67 37 3d 8d dc 06 be 18 05 d6 bc
       -0.06470782 0.044776317 -0.13170071 -0.026125476
0002d0 de 90 19 be 23 97 28 bd da ef a6 3b 60 9d 9d bd
       -0.14996669 -0.04115976 0.0050945105 -0.076960325
0002e0 34 b0 8e 3c d7 5f e9 3c de 2f f4 bd b8 81 89 bd
       0.017418005 0.028488083 -0.119231924 -0.06714195
0002f0 b3 a2 b0 bd 41 b8 04 be b1 b1 cd bd 38 a8 68 3c
       -0.086247824 -0.12960912 -0.100436576 0.014200263
000300 e6 5c 05 be 64 24 19 3d 25 bb 8f bd 89 2d 1d 3d
       -0.13023719 0.03738822 -0.07018117 0.038373504
000310 30 ac a7 bc 74 41 9f bc b5 41 19 be 30 35 32 be
       -0.020467848 -0.01944039 -0.14966471 -0.17403102
000320 0d 34 db bd 24 25 18 bd 13 62 97 3c 65 18 ff 3c
       -0.10703287 -0.037144795 0.018479383 0.031139562
000330 de 3c 82 3d 3f 28 1a be 93 3d 19 be 6a 12 cd bd
       0.06359266 -0.15054415 -0.14964895 -0.10013278
000340 bd 75 09 be ac 89 c1 bd 2e b4 60 3d 98 b0 92 3b
       -0.1342382 -0.09450087 0.054859333 0.004476618
000350 ca 65 e3 bc dc 59 32 bd ab 6a b2 bd e8 8c 2f be
       -0.027758498 -0.043542728 -0.087117516 -0.17143595
000360 20 cf cd bd 31 ee fe 3d e2 b4 ad 3e 06 4b 82 3c
       -0.100492716 0.12447775 0.33927065 0.015904915
000370 31 f6 3b be 31 7e 7f 3e 7d e5 91 be 36 03 3e be
       -0.18355633 0.24950482 -0.28495398 -0.18555912
000380 3c 20 f5 3d 6f 56 74 3e 7d e8 47 be e4 2a 0c 3e
       0.11969039 0.23861097 -0.19522281 0.13688236
000390 b2 d0 9c 3e d8 6e 6d be 70 69 9b bd df db 7d 3e
       0.30627972 -0.23186815 -0.0758847 0.24790905
0003a0 20 e8 16 be 54 71 ec bd 34 8c b5 3e 98 c1 a0 be
       -0.14736986 -0.11545053 0.3545853 -0.313977
0003b0 7b 41 03 ba b2 e2 ec 3e d2 f8 e8 be 7e 9a 8b be
       -0.0005007011 0.46266705 -0.45502335 -0.27266306
0003c0 b0 e5 ba 3e 90 1c 77 be 20 f4 9c bd d3 ae da be
       0.36503363 -0.2413199 -0.07663751 -0.42711505
0003d0 fa 0f ba bd 3e 1f c0 3e ff ca e8 be 22 a8 37 be
       -0.090850785 0.37523836 -0.45467374 -0.17935231
0003e0 77 d1 d4 3e a2 1b e0 be 3a 13 66 bd 69 15 97 3e
       0.4156606 -0.43771082 -0.05617068 0.29508522
0003f0 2b d8 0d bf 98 ff 65 be 9e 0a 85 3e be 39 15 bf
       -0.5540797 -0.22460783 0.25984663 -0.5829123

arith.constant2 f4 [256]
000000 3e 33 b0 be 57 47 01 bc 96 2d e3 bc ef 45 49 3b
       -0.34414095 -0.007890544 -0.027731698 0.003071185
000010 89 20 ad bb 82 fc 95 bb a2 5b d9 3b 4e 29 6f bd
       -0.0052834195 -0.0045772204 0.006633238 -0.058389
000020 d1 99 73 be ad 1d 01 be 7c f1 1a bd b8 17 a2 ba
       -0.23789145 -0.12608977 -0.037827954 -0.0012366688
000030 88 47 d1 bc f5 2b 40 bb 95 d2 08 bc 24 d7 a2 3b
       -0.025546804 -0.0029323075 -0.008350988 0.0049694944
000040 69 b3 db bc 04 9f 14 bd 9a 20 31 be 68 75 e7 bc
       -0.026818948 -0.03628446 -0.17297593 -0.028254226
000050 9e dc 63 be 82 8a 22 be 29 7c ef bb 26 68 68 bb
       -0.22252128 -0.15873149 -0.007308502 -0.0035462468
000060 4e 2e 2f 3b 6b ec cc ba 28 54 de 3b 83 89 ef bb
       0.002673048 -0.0015634423 0.0067849346 -0.007310094
000070 d3 4b 31 bd cc f2 c1 bd be f8 b2 bd a9 3d a2 3b
       -0.043285202 -0.09470138 -0.0873885 0.004951198
000080 e4 f8 0b bc 9a 32 3a bd 57 72 c5 3b b7 7e f6 3b
       -0.008543227 -0.045458414 0.0060255933 0.00752243
000090 04 16 62 be aa d1 c1 3b 8a 2f 3a be b9 69 4b bd
       -0.22078711 0.0059148865 -0.18182197 -0.04966137
0000a0 37 05 1d bd 0d ff f6 bb e7 f4 cf bc 07 57 ef 3b
       -0.03833505 -0.0075377286 -0.025385333 0.0073040756
0000b0 84 66 50 3c a2 94 86 bd d9 96 41 3b 0a 65 ef bc
       0.012719754 -0.06571318 0.0029539375 -0.029222984
0000c0 cd ab 63 3b 9b 5b d6 bc 3c 8a 07 ba f9 92 b6 bc
       0.0034739852 -0.026166728 -0.000517044 -0.022286879
0000d0 c8 f5 cc be 2c d7 ad bf ec 47 d1 bd 8c 18 10 bb
       -0.40031266 -1.358129 -0.10218796 -0.0021987287
0000e0 fd 5a 3f 3b 00 a4 4b bc fe e9 21 bc c2 17 dc bc
       0.002919852 -0.012429237 -0.009882448 -0.026866797
0000f0 07 d0 83 bd 8f 58 cd 3b 41 f9 ed 3b 20 b4 17 bc
       -0.064361624 0.0062666605 0.0072623794 -0.009259254
000100 fa c9 96 bc b0 81 d4 3b c0 c6 6d b9 ec 59 cf bd
       -0.018406857 0.0064851865 -0.00022676121 -0.10124573
000110 96 a2 e8 3b 9f dc a6 bd a8 54 dd bc 15 30 2c 3c
       0.00709946 -0.08147549 -0.027017906 0.0105095105
000120 04 2c 94 bf f6 4d 37 bd 20 32 95 bd e1 a2 f9 bb
       -1.1575933 -0.044752084 -0.07284951 -0.0076182936
000130 06 2d 83 bd 62 83 12 bc fc c8 ef 3b 93 9d a0 bc
       -0.06405072 -0.008942457 0.0073176604 -0.019606387
000140 5a 8e 16 bf e7 03 a3 be aa 0b ee 3b 3f 59 d9 bb
       -0.5881096 -0.31838915 0.007264574 -0.0066329534
000150 a6 6c f1 bc 99 e7 ad bd de f4 3f bb 3a 0a 40 3b
       -0.029470753 -0.08491439 -0.002929024 0.002930297
000160 7e 8a 76 bd 24 e1 d2 bc 0e 44 d3 be a5 16 81 bc
       -0.06019067 -0.025742121 -0.4126286 -0.015757868
000170 24 bb c8 be 10 9b 07 bc c0 2b 1b b9 cf 20 bf bd
       -0.39205277 -0.008276716 -0.0001479825 -0.093324296
000180 99 bc 9b bc 2e 90 9c bd dc c4 13 bd 07 f2 02 3c
       -0.019010829 -0.076446876 -0.03607641 0.007992274
000190 ac bd be 3b 8d ff 3f bb fd f9 ba bb 72 2a 7d bd
       0.0058209505 -0.0029296607 -0.0057060705 -0.061808057
0001a0 8c ab 91 bb ca cb 0d bb d3 f7 f7 bc fe 74 9f bc
       -0.004445499 -0.002163636 -0.030269539 -0.019464966
0001b0 78 ae 83 ba 6d 23 ee bd f5 04 22 bd a1 ee 9b be
       -0.0010046503 -0.11627851 -0.03955551 -0.30455497
0001c0 04 4e 7d bd e8 34 d1 bc 0e 75 01 bf 80 6d 97 3c
       -0.06184198 -0.025537923 -0.50569236 0.01848483
0001d0 e1 84 a8 bd c4 fe 9b bc 90 27 72 3d be 73 01 be
       -0.0822847 -0.01904238 0.05911976 -0.12641808
0001e0 44 8c 51 3b 72 26 df bc e6 ce f9 be 5e 66 c8 bb
       0.0031974474 -0.027240012 -0.48790663 -0.0061157187
0001f0 f8 dc 7a bd 7a 90 80 bd fd 1b 30 3d ca a0 9b bd
       -0.06124589 -0.06277557 0.04299544 -0.075990275
000200 84 bc 49 bb 37 82 15 bc 8e bc 87 bd 3a a9 81 bd
       -0.003078253 -0.009125284 -0.06627761 -0.063311055
000210 cc 87 10 bd e7 80 4f 3b ef 40 02 be 15 e8 88 be
       -0.035285756 0.0031662525 -0.12720083 -0.26739565
000220 84 ca 92 bd 51 92 7a bd c0 1d c9 ba 49 dc d7 bb
       -0.07167533 -0.061174694 -0.0015343949 -0.0065875393
000230 66 13 29 bd 54 cf ba bc 48 95 f8 bb 38 9b d5 be
       -0.041278265 -0.02280394 -0.007586155 -0.41719985
000240 f6 94 5d bd c2 50 f7 bb 77 0b 40 bb 53 5b df bc
       -0.05409714 -0.007547469 -0.0029303709 -0.027265226
000250 0b 57 02 3c 60 54 a3 bc 06 d9 54 bd af 53 9f bd
       0.007955323 -0.019937694 -0.051964782 -0.07779633
000260 80 bd 90 bc 40 31 f2 bb fc 38 be bc 3d eb a6 bf
       -0.017668486 -0.007391125 -0.023220532 -1.3040539
000270 87 6d b4 3b d3 cb 05 bc 7c 01 c4 be 07 83 1b be
       0.0055062207 -0.008166271 -0.38282382 -0.15186702
000280 a1 75 21 bd c3 e6 15 bf cb 5b 3a bb d8 4f 2b bd
       -0.03941882 -0.5855524 -0.002843606 -0.04182419
000290 40 2c f3 3b 36 17 e2 bc ca 48 2c be c4 e6 f3 bb
       0.0074210465 -0.027598958 -0.16824642 -0.007443281
0002a0 c7 c2 7a bd 65 e0 aa bb 85 e0 71 bf 04 f1 0d bc
       -0.06122091 -0.005214738 -0.94483215 -0.00866342
0002b0 74 1c 28 3b f8 b9 b5 bc ad ae 16 bd 50 bc 13 bd
       0.0025651725 -0.022183403 -0.036787678 -0.03606826
0002c0 39 ae 4a bd 34 f3 d3 3d df 7e 79 3b 11 20 92 bd
       -0.049482558 0.10349122 0.0038070006 -0.071350224
0002d0 82 9b e4 bc c8 8e f0 bb 1a 59 eb bc a0 de 44 3b
       -0.027906183 -0.0073412396 -0.02872901 0.0030039921
0002e0 22 26 a1 ba 77 6c 2e bb cd b2 a1 3d 26 16 a9 bd
       -0.001229469 -0.0026614943 0.07895432 -0.082561776
0002f0 9f 25 ef 3b 60 81 f9 b8 ee 61 81 3b 6d 0c 92 3a
       0.007298186 -0.00011897343 0.0039484417 0.0011142619
000300 fb d8 51 bb 63 d3 e9 3b 83 a1 8a bd a5 30 15 bd
       -0.00320202 0.007135795 -0.06769087 -0.036423344
000310 1f 5c 52 bd dd ed 66 be ec b4 7e bb 92 c4 db bc
       -0.051357385 -0.22551675 -0.0038865162 -0.02682713
000320 dc fc 8e be df 81 15 bc 03 f3 6b bd 8e 2e f1 3b
       -0.2792729 -0.009125202 -0.0576048 0.007360286
000330 43 66 b2 bb 42 2f af bd 46 17 86 bb 8a 55 2f be
       -0.0054443195 -0.085539356 -0.00409213 -0.17122474
000340 eb 8a 10 c0 c2 95 aa bb 50 74 a7 3b 06 c1 2e bb
       -2.2584789 -0.005205841 0.005110301 -0.0026665344
000350 44 69 c7 bd 66 ce 8e bb 63 61 0c bc 10 d9 94 be
       -0.09736875 -0.0043581007 -0.008568141 -0.29071856
000360 f1 0c a2 bd 49 80 d0 bb ee 00 1c bd 47 8b 3f 3b
       -0.079126246 -0.006362949 -0.038086824 0.0029227303
000370 c0 ab a5 bb 17 0e 21 bf ca 42 b5 bc 80 0b af 39
       -0.0050558746 -0.62912124 -0.022126574 0.0003338717
000380 87 9b 58 bd 81 95 55 3b f5 f0 0f bd 52 02 81 bc
       -0.052882697 0.0032590332 -0.035141904 -0.015748177
000390 77 3f f3 3b d8 b7 52 ba c6 4e 10 bd ed ce 15 bd
       0.007423337 -0.0008038259 -0.035231374 -0.036574293
0003a0 ea 8d cf bd c6 b0 99 be 65 be 3f bb b0 e3 63 39
       -0.1013449 -0.3001768 -0.002925777 0.00021733227
0003b0 74 42 01 3b 40 e0 64 bd 6e 20 11 bd 27 ab 8b bd
       0.0019723447 -0.055877924 -0.035431318 -0.06819754
0003c0 f0 d5 ee 3a ec cd 19 bc 6b d0 24 bc dc d5 3e be
       0.0018221717 -0.0093874745 -0.010059456 -0.18636268
0003d0 5a d7 9c bb f3 1a 86 3b de 21 04 bf 42 b7 f2 3b
       -0.004786414 0.004092568 -0.5161418 0.0074071
0003e0 f0 34 45 bb c2 66 29 bd 0b 9c e1 bc 3a 9d 28 bd
       -0.0030091368 -0.041357763 -0.027540227 -0.041165568
0003f0 80 f5 06 bd d2 f4 2e bc f3 15 9e bf ea 52 41 bb
       -0.03294897 -0.010678487 -1.2350448 -0.0029498884

arith.constant3 f4 [256]
000000 8d 75 4b 3e ef 7f c3 41 03 f6 bc 3f 1d c7 d9 41
       0.19869061 24.437468 1.4762577 27.222223
000010 17 72 c5 41 08 2a 0d 42 65 d1 0c 42 33 a9 75 40
       24.680708 35.291046 35.204487 3.838452
000020 7e 6e 09 3f d0 77 46 3f 1a 10 88 3f 7f 0f 04 41
       0.5368422 0.7752657 1.0629914 8.253783
000030 55 12 b2 3f 27 c6 08 42 52 28 fb 41 45 6f 83 bd
       1.3911844 34.19351 31.394688 -0.06417707
000040 17 f5 a0 39 66 44 84 40 2c 57 96 3f e1 92 cb 3f
       0.00030700184 4.1333494 1.1745353 1.5904199
000050 31 8a a7 3d 8d db 87 3f 84 43 a7 41 75 3c ea 40
       0.08180655 1.0613877 20.907967 7.31988
000060 54 f0 ec 41 af 2e 03 bd 77 61 e6 40 15 d3 45 41
       29.617348 -0.032026943 7.1993976 12.364034
000070 0b 8f 34 40 12 80 74 3d 1f 6a 41 3f b0 77 28 42
       2.8212306 0.05969245 0.7555255 42.116882
000080 2b bd 28 3c ed c1 d6 40 8a 56 53 c0 e2 9e 18 42
       0.010299007 6.7111726 -3.302157 38.15516
000090 23 b8 49 3f f4 39 a6 41 7f c8 1b 3e e1 7b 2d 40
       0.78796595 20.778297 0.15213202 2.710686
0000a0 47 10 e0 3f 47 69 08 42 67 b0 dd 39 9b 66 ea 41
       1.7504967 34.10281 0.00042283835 29.3001
0000b0 2c 6c 8c 40 44 7a 34 40 ee df f6 41 d5 86 33 40
       4.3882046 2.8199625 30.85934 2.8051045
0000c0 36 ec 25 bf 3a 0b 9a 3f e2 78 74 41 b5 86 86 3f
       -0.64813554 1.2034676 15.279512 1.0509859
0000d0 09 98 ba 3d a6 1a cc 3c bd 1e 1a 3e 3d f2 a5 41
       0.0911103 0.02491505 0.15050788 20.74328
0000e0 29 bc 1e 42 a1 5f 17 41 4a 7b 95 40 82 87 cc 40
       39.68375 9.460847 4.6713 6.3915415
0000f0 6e 23 21 40 5b 37 1e 42 52 fa 6c bc 88 3c 1a 41
       2.5177875 39.554058 -0.014463978 9.639778
000100 d8 ee 91 39 a8 81 0f 42 3a a5 b5 be 1b 10 23 40
       0.00027834508 35.876617 -0.3547762 2.547858
000110 fd 4b bc 41 ba d5 24 3f 32 51 6f 40 73 f5 23 42
       23.537104 0.6438862 3.7393308 40.989697
000120 a2 30 15 3d 96 68 df 3f df e3 92 3f 5f 65 71 bb
       0.036423333 1.7453792 1.1475791 -0.0036834104
000130 3a 87 d6 3e 60 c2 34 42 be ff 40 42 f5 4c dc 3f
       0.41900045 45.18982 48.24975 1.7210985
000140 2b e4 0c 3c 57 e2 97 3f 14 80 bc 41 46 e7 1f 42
       0.008599321 1.1865948 23.562538 39.975853
000150 6f a0 ef 40 ef fc 17 40 62 bf e1 41 f3 8a fc 41
       7.488334 2.3748128 28.218449 31.567846
000160 84 84 17 3f 09 db 61 3f 90 98 3c 3e e5 df de 3c
       0.5918658 0.88224846 0.18417573 0.02720637
000170 e8 c3 53 3d 0e bb 96 3f 5a 4f fe 3f fb c7 70 3f
       0.051700503 1.1775835 1.9867966 0.94055146
000180 cb 6b 2f 42 46 f1 83 3f c2 15 11 40 82 d9 a7 3f
       43.855267 1.0308006 2.266953 1.3113253
000190 42 64 31 42 d6 0e e6 41 dc 9e de 41 d2 95 bf 3f
       44.347908 28.757244 27.827568 1.4967597
0001a0 ba 07 d1 40 7f 31 0e b9 12 74 c5 3f 8c 35 27 3a
       6.532193 -0.00013560614 1.5426047 0.00063785235
0001b0 94 5e 0f 40 0f 3d c4 3f 58 b5 18 40 51 b8 83 3d
       2.2401476 1.5331134 2.3860683 0.0643164
0001c0 ab d0 90 3e 46 43 b3 3d dd 3a 0b 3c 55 36 26 b9
       0.282842 0.08753066 0.008497921 -0.00015851234
0001d0 8d 4d 7d 41 2d 38 bb 3f 89 eb 41 ba 26 39 aa 3a
       15.831433 1.4626518 -0.0007397463 0.0012987002
0001e0 dc fb e8 b8 12 b6 43 40 a2 ab 93 3d 8a 71 a7 41
       -0.000111095345 3.0579877 0.07210471 20.930439
0001f0 3a 76 8d 3f 46 da d7 3f f6 6c 12 ba 93 70 7d 3f
       1.1051705 1.6863487 -0.00055856945 0.989999
000200 bb b7 96 40 0f e4 67 3a 7a a0 36 3f a5 8b 77 3f
       4.709928 0.0008845934 0.7133862 0.96697456
000210 c8 20 b0 3f 07 a4 90 41 eb 92 a6 3f 5c f1 c5 3d
       1.3760004 18.080091 1.3013586 0.09665176
000220 06 31 2c 40 2e 62 2d 40 a0 38 25 bf 06 47 8c 41
       2.6904922 2.7091174 -0.6453953 17.53468
000230 45 20 7f 3f fb 5a f6 3f 44 ec 27 42 c4 ec 63 3c
       0.99658614 1.9246515 41.98073 0.01391143
000240 6f 7a 43 3f 9e 19 f9 41 4c 57 cc 41 d4 d9 14 40
       0.76358694 31.137508 25.542625 2.3257952
000250 a4 a1 24 41 63 85 2c 40 41 32 3d 3a 9d 5b fe 3e
       10.289463 2.6956413 0.0007217266 0.4967927
000260 04 c0 37 40 b8 36 e5 41 e2 6c 3e 40 8c f0 4b 3c
       2.8710947 28.651718 2.9753957 0.012447488
000270 47 b9 16 42 a6 0f 5c 40 56 89 3e 3d 9a df 9c 3f
       37.680935 3.438455 0.046517693 1.2255738
000280 5e 55 6f 3f 8f 78 d0 3d d2 af 09 42 f8 76 96 3f
       0.93489635 0.10179245 34.4217 1.1755056
000290 96 22 80 42 3a ed 8b 40 4f a6 f3 3f 8f e0 c8 40
       64.06755 4.3727083 1.9035128 6.277412
0002a0 0c b5 01 40 75 5b 3b 42 e3 90 dc 3c f1 d9 da 40
       2.0266752 46.839314 0.026924556 6.839104
0002b0 4e 0d 34 b7 19 db 8f 40 bc 22 0f 3f 0d 6a 02 40
       -1.0731934e-05 4.4954953 0.55912375 2.0377228
0002c0 1b 2c d9 39 3d 83 00 bd 64 db fd 41 d7 7c e1 3f
       0.00041422326 -0.03137516 31.732124 1.7616223
0002d0 f5 35 be 40 02 c3 ec 41 88 f1 c7 40 73 7b aa 41
       5.9440866 29.595219 6.248234 21.310278
0002e0 4e f1 cd be cc 3d 85 41 f7 69 59 ba e0 43 c1 3f
       -0.40223163 16.655174 -0.0008293683 1.5098839
0002f0 bc 0c 29 42 fa 98 8c 3f 5f d1 ba 41 b8 3c 66 42
       42.262436 1.0984185 23.352232 57.559296
000300 09 7a 98 b8 e6 ff 0e 42 b6 bf 23 3f b6 86 29 3f
       -7.2706556e-05 35.7499 0.639644 0.6622118
000310 47 47 4b 3f a5 02 71 3b f7 96 20 42 0a bd d2 40
       0.79405636 0.0036775258 40.147427 6.585576
000320 76 2c 1b 3e 33 0b 1e 42 b5 e5 aa 3f ca db 9e 41
       0.15153679 39.510937 1.3351351 19.857319
000330 e8 6f 4b 42 89 7a ad 3f 9b a4 77 42 ea 7f c3 3e
       50.859283 1.355302 61.910748 0.38183528
000340 08 67 f6 3c bc d7 86 40 17 6b 02 42 e7 67 85 b8
       0.030078426 4.213835 32.60458 -6.3612875e-05
000350 f2 c9 d9 3e dc 71 d7 41 76 08 14 42 43 b9 bd 3d
       0.42536885 26.930595 37.008263 0.092638515
000360 1a ce c7 39 53 d5 9c 41 64 40 23 3d 0f bc b5 41
       0.00038109795 19.604162 0.03985633 22.716825
000370 e1 22 d1 41 65 e6 39 3c 36 9a f0 40 e2 ec 4c 41
       26.14203 0.011346434 7.5188246 12.807833
000380 36 07 87 3f 6e 50 20 42 98 da 0a 3f f1 5d 73 40
       1.0549076 40.078545 0.542398 3.8026087
000390 6c 21 f2 41 1c 58 60 42 7d c3 09 40 b6 f6 b5 40
       30.26632 56.086044 2.1525567 5.686366
0003a0 0f 4d dd 3f f5 09 8b 3d 7f bb 23 42 ea 29 f5 3f
       1.7289141 0.067890085 40.9331 1.9153416
0003b0 a0 b6 19 42 1e e0 96 3f 68 8c 14 40 b1 99 6d 3f
       38.428345 1.1787145 2.3210697 0.9281264
0003c0 f2 cd 70 3f 3a 5c f6 41 37 60 41 42 4e 89 91 3f
       0.9406425 30.795033 48.34396 1.1370027
0003d0 44 d0 23 41 a7 d6 0f 42 cf c6 b7 3d 0b cc 14 42
       10.238346 35.95962 0.089734666 37.19926
0003e0 41 8e 0b 42 d3 47 c1 39 98 c0 18 40 e0 8f 39 40
       34.88892 0.00036865342 2.386755 2.8994064
0003f0 d6 c7 e8 3f aa fc 2f 41 46 f4 86 3c 88 63 96 41
       1.8185985 10.999186 0.0164739 18.7986

arith.constant4 f4 [128]
000000 20 a0 87 be ee cd 29 bf 3c 17 07 be 4f ba b7 3f
       -0.26489353 -0.6632985 -0.13192457 1.4353732
000010 b0 10 68 bd 9e 99 18 3f e8 6b 77 bf 5f be c6 3e
       -0.05665654 0.596094 -0.96649027 0.38817117
000020 f3 8f 6f be be 13 3a 3f 34 bc da be 4e 60 fa 3d
       -0.23394756 0.72686374 -0.42721713 0.122254
000030 bb ab 80 3e ae 25 6b 3e 72 af 37 3f 55 ef ed bd
       0.2513102 0.22963592 0.71752083 -0.116179146
000040 d8 92 4d bf 1e 2a 9b bf d3 08 42 3f 47 c0 81 3e
       -0.8030219 -1.2122228 0.75794715 0.25342008
000050 ed 07 c0 3f d4 86 47 bf 26 13 aa be f1 ba d0 be
       1.5002419 -0.77940106 -0.33217734 -0.40767625
000060 eb 9f 62 bf 60 e8 87 3f 85 5b 9e be bc 4e a4 3f
       -0.88525265 1.061779 -0.309292 1.2836528
000070 a5 c3 82 bf 40 98 c3 3d 1a 12 2f be d0 e3 38 be
       -1.0215956 0.09550524 -0.17096749 -0.18055654
000080 46 34 3d 3f ae bc b5 bd 32 87 75 3f 76 17 63 be
       0.7390789 -0.088738784 0.95909417 -0.22176918
000090 f8 06 b0 bf 7d bb ba 3f d9 4c 43 be 46 da e3 bf
       -1.3752127 1.4588467 -0.19072284 -1.7800987
0000a0 2e 17 52 bf ce 68 6e bf 12 e4 d6 bf b9 76 a0 3d
       -0.8206662 -0.9312867 -1.6788352 0.078351445
0000b0 c0 2e 49 bf 17 90 58 bf 93 4b a5 bf 00 49 2a bd
       -0.7858696 -0.84594864 -1.2913688 -0.041573524
0000c0 30 ff f4 3e 7a 8c 28 bf 1c 28 df be 3c db 83 bd
       0.47850943 -0.6583935 -0.4358529 -0.064383
0000d0 b5 cb 39 be 14 ed 98 3d 2e a5 1d 3b 62 7e 75 3f
       -0.18144114 0.07467094 0.0024054754 0.9589597
0000e0 b0 e5 92 bd cc 29 b6 bf ac 75 1c be db 74 73 be
       -0.07172716 -1.4231505 -0.15279263 -0.23775046
0000f0 46 89 2b 3f 05 00 14 3f 40 e7 08 3f f8 cd 4c 3c
       0.6700634 0.5781253 0.5347786 0.012500279
000100 8c 17 86 be f6 a9 80 be 9f a9 fe be c1 03 1e bf
       -0.2618984 -0.2512967 -0.49738786 -0.6172448
000110 e8 9a 1f bf 3d e2 3b 3e 6d 73 8d 3f 3c 6e 9a 3d
       -0.62345743 0.18348022 1.105085 0.07540557
000120 83 19 b4 3f 14 48 26 bf 1d b6 40 bf d0 58 d2 3e
       1.4070286 -0.6495373 -0.7527788 0.41083384
000130 70 72 32 bd aa 1d a8 3e 57 1f 8c bf 98 79 bb bf
       -0.043566167 0.32835132 -1.0947064 -1.4646482
000140 d9 9c b6 bf 95 5a 29 3e 3b d1 5a bf 34 42 dd bd
       -1.4266616 0.1653846 -0.8547551 -0.10803643
000150 3c b6 30 be 7f 85 0f 3f 8e 46 c6 bc 96 0e 6a bd
       -0.17257017 0.56063074 -0.024203565 -0.057142816
000160 e8 67 e1 bd d4 89 e9 bf 2a 31 1c bf d5 bc 4d be
       -0.11006147 -1.8245187 -0.6101252 -0.20091565
000170 5b 01 b7 bf cb d8 79 bf a3 9e aa be 12 dd 98 bd
       -1.4297289 -0.97596425 -0.33324155 -0.07464041
000180 b4 77 e3 be 80 ae 34 3f bb 2a 4c bf 47 50 0b bf
       -0.44427264 0.70578766 -0.797527 -0.5441937
000190 42 39 c6 3e ce 15 b4 3f ed 08 fc bc 2a 3a 94 3f
       0.3871556 1.4069154 -0.030765975 1.158025
0001a0 98 71 a8 3f f2 68 b7 be 76 96 8c 3e 3c bc 0a bf
       1.3159666 -0.35822254 0.27458543 -0.5419347
0001b0 48 00 23 3b fa 79 5b be 89 83 8e 3e ac fd 86 bf
       0.0024871994 -0.21433249 0.27834728 -1.0546165
0001c0 a2 fc f3 3e 1c cf 44 3f ed 77 90 3f f7 de b0 3d
       0.4765368 0.76878524 1.1286598 0.08636277
0001d0 d8 19 e3 3d ee 1d 1d bf 00 0e d2 3d 03 0a 0f bf
       0.11088914 -0.61373794 0.102565765 -0.5587465
0001e0 4d cf 44 be 43 ed c1 3f 25 60 4c be 38 d5 b1 be
       -0.19219704 1.5150532 -0.19958551 -0.34732985
0001f0 90 04 d3 bf 86 fd e2 bd fa c0 f5 3e 6a 3b 1e be
       -1.6485767 -0.11083512 0.47998792 -0.15452352

arith.constant5 f4 [128]
000000 25 a0 1b 3e 2b b4 a4 3c e3 79 ac 3d 4d e2 96 3e
       0.15197809 0.020105442 0.084216855 0.2946953
000010 40 24 32 3e be ae fc 3d 8f a1 94 3e 3e 0e 43 3f
       0.17396641 0.12338017 0.2902951 0.76193607
000020 d9 44 5a 3c 50 5a 3d 3e 8b 55 17 3e f9 41 32 3f
       0.013322079 0.18491483 0.14778726 0.69631916
000030 21 75 d8 3d 47 e5 c5 3d 36 08 79 3e 7d dd 39 3c
       0.105692156 0.09662872 0.24319538 0.011344311
000040 c8 4e dd 41 34 31 85 3c 74 e5 a5 3d 50 f0 39 3d
       27.663467 0.016258813 0.08100405 0.045395195
000050 35 2f af 3d 3c 8d 4a 3d 00 cc 19 3e 59 d0 5a 3d
       0.08553926 0.049451098 0.15019226 0.053421352
000060 a2 64 68 3d c9 96 fb 3d 0f 27 8b 3b 0d 36 a9 41
       0.056736596 0.12284619 0.0042465995 21.151392
000070 e5 42 37 3c 3a c3 ca 3d 16 47 10 3e 01 a5 16 3e
       0.0111853825 0.09900518 0.14089617 0.14711381
000080 c3 c9 42 3e 1f 4e a2 3d a4 c3 25 3e ad 66 ad 3d
       0.19022278 0.07925057 0.16187912 0.084668495
000090 f9 59 9d 3e c6 f1 9b 3e 06 9c 04 3e e2 e5 ba 3c
       0.30732706 0.30457896 0.12950143 0.022814695
0000a0 4e 06 5f 3e 13 d2 16 3e 7b 4d 87 3d 7b 17 97 3c
       0.21779749 0.14728574 0.06606575 0.018443814
0000b0 2a 30 33 3d a5 73 6c 3d 7e 40 8e 3d 88 04 60 3f
       0.043747105 0.057727475 0.06945895 0.87506914
0000c0 98 90 e0 3d 17 c1 c4 3d 28 41 08 3e 01 37 02 3d
       0.10965079 0.096071415 0.13306105 0.031790737
0000d0 dc 94 03 3e ed b3 98 3c ae e2 f6 41 45 15 c5 3e
       0.12849754 0.018640483 30.860683 0.3849279
0000e0 9b b9 8a 3f 8d b8 85 3e db 5d 29 3e 42 9f 6b 3f
       1.0837892 0.26117364 0.1653971 0.92039883
0000f0 25 48 ad 3d 4d 04 ba 3d 50 4d 8b 3d a1 9f d5 3d
       0.08461026 0.090828516 0.068018556 0.104308374
000100 18 a2 8c 3d ec da a6 3c 45 33 f0 3e 55 f7 dd 3e
       0.068668544 0.020368062 0.46914116 0.43352762
000110 db 91 d3 3e 66 01 fd 3d 03 fd 22 3f 5e ee 93 3c
       0.41322216 0.12353782 0.63667315 0.018057998
000120 14 cf e7 3e c7 9d c4 3d d5 c8 75 41 3e c1 81 41
       0.45275176 0.09600406 15.361531 16.219357
000130 b6 b6 dd 3d 13 97 c1 3c 44 3d ee 3c ac 08 9b 3c
       0.10825865 0.023631608 0.029081948 0.018925034
000140 3c 90 93 3d 3e 3e f3 3d 3e e4 47 3e b4 74 ee 3e
       0.07205245 0.11877106 0.19520661 0.46573412
000150 75 98 73 3d 3d 0a bc 3d a4 d3 5c 3f 82 35 26 3d
       0.059471566 0.0918164 0.8626044 0.040578373
000160 da b0 9d 3d 9b 1d 7b 3d cd c2 ad 3d d0 3c 0b 3c
       0.076997474 0.06130753 0.08484421 0.008498386
000170 e7 d3 0e 3d b6 aa a2 3d 09 eb 18 3e 75 3e 8b 3e
       0.034870055 0.07942717 0.14933409 0.27196088
000180 58 93 23 3e a7 d7 b2 3d 4d 78 b7 3e 62 b9 b0 3d
       0.15974176 0.08732539 0.3583397 0.08629109
000190 31 3a b4 3d 06 98 65 3e 4d 4a e9 41 d9 4d 44 3e
       0.08800162 0.22421274 29.16128 0.19170322
0001a0 4e a1 92 3e 33 e7 04 3f 91 07 c4 3d 1f 0e 7c 3d
       0.2863869 0.5191528 0.09571756 0.061536904
0001b0 db c1 74 41 d4 d9 c2 3d a4 f0 f0 41 25 63 da 3d
       15.297328 0.09514204 30.1175 0.106634416
0001c0 8a c5 83 3e 63 1c 85 3e 46 e7 30 3e 7a a6 9d 3e
       0.25736648 0.2599822 0.17275724 0.30791074
0001d0 70 b3 61 3e 76 1c 89 3c 22 47 3a 3e 7e bd db 3e
       0.22041106 0.016737204 0.18191198 0.4291801
0001e0 eb bd 8e 3e 44 64 91 3e c4 4f a2 3c 16 8a fc 3d
       0.2787927 0.2839681 0.019813426 0.12331025
0001f0 30 d8 c1 3e e8 7f 3a 3c ba 8e 78 3d 73 4a 0d 3d
       0.3786025 0.011383034 0.06068299 0.03449483

arith.constant6 f4 [32]
000000 ff b9 85 bd 93 d5 74 3e a6 37 c9 bc 8a 1c e7 3c
       -0.065296166 0.23909597 -0.024562668 0.02821185
000010 3e d1 b4 bf dc b9 1d bf 53 de 57 3e 00 48 0b 3d
       -1.4126356 -0.61611724 0.21080904 0.03400421
000020 ed c6 26 bf a9 76 1a be e0 35 41 bf 49 6b 3b bf
       -0.65147287 -0.15084328 -0.7547283 -0.7321058
000030 c2 56 b8 bd 5c 28 26 bd 6a 3b 43 bf 66 0d 7e bf
       -0.09000923 -0.040565833 -0.76262534 -0.99239194
000040 c6 5b d5 bc bf 3b 35 3c 3a 86 f4 bd a0 fe 62 3d
       -0.026044738 0.011061608 -0.11939664 0.05541861
000050 07 8c e7 bf 4a 1e 12 be bb 0a 8c c0 df 92 dc bf
       -1.8089608 -0.14269367 -4.37631 -1.7232322
000060 9f 7c d7 3c 44 1f f0 bd 3b 68 5e bf ae 2f 28 3e
       0.026304541 -0.117247134 -0.86877793 0.16424438
000070 4f 3b 5f 3d c4 58 21 bd c2 6d c7 3d b9 92 19 c0
       0.05449992 -0.039391294 0.097377315 -2.3995802

arith.constant7 f4 [32]
000000 1e d1 fe 41 4c 53 e8 41 c2 e3 08 42 15 5f dc 41
       31.852108 29.040672 34.22242 27.546427
000010 b5 4b 92 40 ef a6 a2 40 60 36 eb 41 08 72 eb 41
       4.5717416 5.0828776 29.40155 29.43068
000020 7e 4b db 40 8f 14 64 41 86 79 5e 40 76 d3 31 3f
       6.8529654 14.255019 3.4761672 0.6946329
000030 ae f5 91 41 72 fd b6 41 98 be 6c 3f 1e 89 1b 3f
       18.24496 22.873753 0.92478323 0.607561
000040 66 b4 83 41 d9 49 1e 41 d1 03 1b 41 46 f8 64 41
       16.463085 9.893029 9.688432 14.310614
000050 18 18 0b 40 4f 22 f8 41 f3 28 91 41 91 3f 6b 41
       2.1733456 31.016752 18.144995 14.703019
000060 bd 09 e0 41 2c fb e5 41 99 61 f0 40 7b b4 bd 41
       28.004755 28.747643 7.511914 23.713125
000070 61 4d 74 41 44 d8 1f 41 75 f9 64 41 28 a6 f7 41
       15.268891 9.990299 14.310903 30.956131

arith.constant8 f4 [64]
000000 7e ba 60 3e ae 4d 86 be 38 6a 96 3e 28 ef be be
       0.21946141 -0.2623114 0.29377913 -0.37291837
000010 01 6a c0 be 80 c7 e3 bb 84 f3 4d be 38 d0 2b bd
       -0.37580875 -0.0069512725 -0.20112425 -0.04194662
000020 66 a2 22 3e 9e c3 e2 be e6 5c d1 be 2d 35 a7 bf
       0.15882263 -0.4428987 -0.40891188 -1.3063103
000030 90 0b a6 bf 20 64 56 3c 9d ac 8d be b4 8f 4b bf
       -1.2972279 0.013085395 -0.27670756 -0.7951615
000040 d9 e6 03 bf ec 16 04 3e da 7b 8e be f0 4c e4 bf
       -0.5152412 0.12899369 -0.27828866 -1.783598
000050 78 7c 9b bd fe c9 a5 be ce 02 08 3e 6d 9f bc be
       -0.075921 -0.3238067 0.1328232 -0.36840382
000060 7e 9d bc 3d b5 ce e5 bf b0 e5 52 be b8 b3 ad be
       0.09209727 -1.7953707 -0.20595431 -0.33926177
000070 e8 bc 18 be 81 d0 a4 3e e0 f1 b8 3c b0 53 e0 bd
       -0.14915812 0.32190326 0.022576272 -0.10953462
000080 68 83 b1 be be b0 ec be 45 69 89 bf 79 9a b0 bf
       -0.34670568 -0.46228594 -1.0735251 -1.3797141
000090 80 c1 8f 3c ea 4b 04 bf 45 04 45 bf 98 fd f9 bd
       0.017548323 -0.51678336 -0.7695964 -0.12206572
0000a0 e8 82 ee be 9a 99 0e 3e ee df 29 be fa bf fa be
       -0.4658425 0.13925782 -0.16589329 -0.48974591
0000b0 e2 9d 20 bf 72 d2 90 bf 08 24 86 bf b7 d7 06 bf
       -0.6274091 -1.1314223 -1.0479746 -0.52672905
0000c0 08 1b c3 be 5b 60 11 bf 1c cc 11 bf cb e1 18 3e
       -0.3810656 -0.5678765 -0.5695207 0.14929883
0000d0 d1 b5 32 bf 43 3c a9 3e 0d 61 8c 3e 2c 43 b1 be
       -0.6980868 0.3305379 0.27417794 -0.3462156
0000e0 3c 9e 86 3e 01 60 4d bf c4 07 30 be 40 a3 c1 3e
       0.26292598 -0.80224615 -0.17190462 0.37819862
0000f0 36 de 9e bf a2 6b e2 be 90 04 48 be f8 c3 79 3d
       -1.2411563 -0.44222742 -0.1953299 0.060977906

arith.constant9 f4 [64]
000000 b1 5c e2 3e ca 4d b6 3d d2 73 33 3e 27 20 a1 3e
       0.44211343 0.08901556 0.1752465 0.31469843
000010 05 33 16 3f 34 c3 83 3e 8b 0a 46 3e 07 72 83 3e
       0.586716 0.25734866 0.1933996 0.25672933
000020 4a 14 15 3e 63 8d f1 3e b2 f0 5b 3f c7 93 cb 3e
       0.14558521 0.47178182 0.85914147 0.39761183
000030 6c b7 03 3e de c8 01 3f 76 84 9c 3e e8 28 6c 3e
       0.12862939 0.50697124 0.3056981 0.2306248
000040 58 93 04 3e d2 76 d7 3e 4a 9f ef 3d d9 ee 1c 3e
       0.12946832 0.4208284 0.11700304 0.15325488
000050 86 d3 25 3e 30 5b 1f 3f 82 b6 eb 3e ff da 66 3e
       0.16193971 0.62248516 0.4603768 0.22544478
000060 a8 d0 52 3e 92 1d 3d 3e b3 77 bf 3d 93 82 81 3e
       0.20587409 0.18468311 0.09349003 0.25294933
000070 4a 3f 3d 3e b9 1e a6 3d 68 05 94 3f d3 6c 82 3e
       0.18481174 0.08111329 1.156415 0.2547365
000080 e3 31 73 3e 35 c9 64 3e 8d 9e 33 3e ee 76 28 3f
       0.23749499 0.2234238 0.17540951 0.6580647
000090 10 26 97 3e 0e 81 4b 3f 8c 29 2a 3e 5a 81 26 3f
       0.29521227 0.79493797 0.16617411 0.65041125
0000a0 9c 17 20 3e a5 15 4b 3d 1b 17 77 3e c8 02 dd 3f
       0.15634006 0.04958119 0.24129908 1.7266474
0000b0 10 6e 1f 3f 35 f4 fc 3d 4c 47 e1 3e 02 6f b2 3e
       0.6227732 0.12351266 0.43999708 0.34850317
0000c0 97 1a 67 3e a2 7e 87 3e 91 dd 00 3e 11 a8 6e 3e
       0.22568737 0.264638 0.12584521 0.233063
0000d0 2e ae 18 3f cb f4 4e 3e 76 b3 2d 3e 4f b5 fa 3d
       0.5964078 0.20210569 0.1696299 0.12241613
0000e0 81 48 e7 3d e1 67 91 3e 6d 54 fd 3e 2d 97 4e 3e
       0.11293126 0.28399566 0.49478474 0.20174856
0000f0 18 ae 6d 3e 67 83 9a 3e ca 69 cf 3e e0 f2 4a 3e
       0.23210943 0.30178377 0.40510398 0.19819212

arith.constant11 f4 [5]
000000 dc 5b 18 be 50 fa b4 3d 4a 1d 1f 3e 5b 5f c7 bc
       -0.14878792 0.08836806 0.15538517 -0.024337461
000010 05 0f be bd
       -0.092802085

arith.constant12 f4 [128]
000000 f7 6e 12 3e 0e e6 3e 3d 8e 00 1c be 10 4f 0c be
       0.14300142 0.046606116 -0.15234587 -0.13702035
000010 1b 04 03 3d 73 c4 85 bd 96 1a 58 bb 14 28 f7 3c
       0.031986337 -0.0653161 -0.003297483 0.030170478
000020 08 53 40 3d f7 39 ac bd 4f 08 be bd 82 93 69 be
       0.046954185 -0.084094934 -0.092789285 -0.22810176
000030 1b 74 e0 bd 72 94 f0 bd 87 5e 1a bd 1d b3 1c be
       -0.10959645 -0.11747064 -0.037687805 -0.15302701
000040 6d f6 b5 bd bc 82 ce bd 65 ca a1 bd 0e 8e 36 be
       -0.088848926 -0.10083529 -0.07899932 -0.17827627
000050 65 d2 0f bd cf 68 8c 3d ce 8e 12 be 70 01 13 be
       -0.035112757 0.06855928 -0.14312288 -0.14356017
000060 b1 f9 4e be 3c e1 7a bd d2 dc 29 3d 16 06 40 be
       -0.20212437 -0.061249956 0.041470356 -0.18752322
000070 04 57 03 be bd 59 09 3e f0 c8 41 bc ff 8e 53 3e
       -0.12826163 0.13413139 -0.011827692 0.20660017
000080 1a cf 20 be 52 db ef bd a4 8e 65 bc 25 0f fc bd
       -0.15704003 -0.11711754 -0.014011059 -0.12307576
000090 4f 49 3d be 36 b6 32 be 71 b1 e2 bd e5 4b ea bd
       -0.18484996 -0.1745232 -0.110690005 -0.11440257
0000a0 f9 6f e6 bd 41 84 32 be 98 db af bd 8a a0 1d 3c
       -0.11251826 -0.17433263 -0.08586806 0.009620795
0000b0 33 8e 3d 3d 69 02 5d bd c9 03 35 be e6 41 31 be
       0.04627819 -0.053957377 -0.17677225 -0.17310295
0000c0 05 fb 05 3c dc c7 f2 bd ea 28 82 3d 95 1c d6 bd
       0.0081775235 -0.118545264 0.0635546 -0.1045467
0000d0 9b 35 0a be 2d d5 a5 bc 61 01 d1 bd 8f b3 d5 bd
       -0.13497011 -0.020243252 -0.10205341 -0.10434639
0000e0 3a df ff bd b7 85 cc bc f1 d2 d5 bd 2a 5d c1 bd
       -0.12493749 -0.024966104 -0.104406245 -0.09441598
0000f0 4c 0e bf bd b9 57 90 3d b3 ee 46 bd b7 7f 5f be
       -0.09328899 0.07047982 -0.048567485 -0.21826063
000100 e3 06 a5 3d 34 69 cd bd f8 77 a1 bd 2d b8 1a bd
       0.08057954 -0.100298315 -0.0788421 -0.0377733
000110 c9 4c 53 3d 0f 6b d6 bc d5 6d 24 be b5 df 0a 3c
       0.0515869 -0.026174096 -0.16057523 0.0084761875
000120 01 cf 99 bb 9d 47 0f 3e 9a 35 7b 3b e8 58 16 be
       -0.0046938662 0.13992162 0.003833151 -0.14682353
000130 2f e5 cf bc 39 6d 39 be 6a 44 0b be 1d 55 07 be
       -0.025377838 -0.18108071 -0.13600317 -0.13216062
000140 25 39 14 3d 34 17 8a bc 61 a3 9a bd f8 48 6b bd
       0.03618731 -0.016856767 -0.07550693 -0.057442635
000150 6a 04 c3 3c e3 cd 00 be c5 3e b8 bd 59 5e dc bd
       0.023805816 -0.1257854 -0.08996347 -0.10760183
000160 79 27 94 bd 92 2b a8 3d 76 49 b2 3c 67 8e ef bd
       -0.07234091 0.082114354 0.021763545 -0.11697083
000170 19 0d 7e bd 36 79 11 be 8c 68 c8 bd a4 fb e8 bd
       -0.06202421 -0.14206395 -0.09785566 -0.11376122
000180 2e 1e 7d 3d b0 e2 b4 3d d1 0e 50 bd 35 3a 19 be
       0.06179636 0.088323 -0.05079538 -0.1496361
000190 68 72 8a 3d 40 9a df 3b 2e c6 cf bd cf 81 41 3d
       0.067601025 0.006823808 -0.10145222 0.047242936
0001a0 50 22 fa bd 30 58 2f 3d db d5 13 bc 62 09 5c be
       -0.12213576 0.04280871 -0.009023155 -0.21487954
0001b0 59 34 44 3d 3a 4f d4 bd 60 97 6d bd c0 c0 6d bd
       0.047901485 -0.10366674 -0.05800569 -0.05804515
0001c0 31 81 1f bd 98 88 ea bd d1 26 3e bd 6c 47 16 bc
       -0.038941566 -0.114518344 -0.046423737 -0.009172302
0001d0 1a f0 09 be a5 49 1a 3c b0 51 1c 3d 05 90 47 bd
       -0.13470498 0.009416972 0.03816384 -0.048721332
0001e0 94 a0 fb 3b 1a 46 ba bd 0e 81 f6 3c 09 08 db bd
       0.0076790545 -0.09095402 0.030090835 -0.10694892
0001f0 fa bf ad bd 6b 26 8e 3d ed 2c 10 be 7b 2e ac bd
       -0.08483882 0.069409214 -0.14079638 -0.08407303

arith.constant13 f4 [5, 128]
000000 ab ee 80 3d 11 4e d6 3d c4 6e 07 3d 0b 05 b6 bc
       0.06295522 0.10464109 0.03306462 -0.022219202
000010 f9 47 9b be e8 df 53 3d 73 e7 54 3d 94 d9 c3 3e
       -0.30328348 0.051727206 0.05197854 0.38251936
000020 09 02 4e 3e d8 4e ac be 49 02 08 bd d4 d1 c4 be
       0.20117964 -0.33653903 -0.033205304 -0.38441336
000030 49 ba 3e bd 23 92 d9 3c 65 48 89 3e 1b 55 c3 be
       -0.046564374 0.026558941 0.26813045 -0.38150868
000040 93 a4 9b 3b 40 9b 4b bd 7a e6 73 be af 59 c2 be
       0.0047498434 -0.049708605 -0.23818389 -0.37959048
000050 ef 64 c4 3c 87 ad 81 be 21 34 a8 be ec 06 df be
       0.02397391 -0.25327703 -0.3285227 -0.43559968
000060 e5 a7 aa 3d d5 a5 c9 bb 4c fa 58 3e b6 53 2d bd
       0.083328046 -0.006153802 0.2118923 -0.04231616
000070 22 b8 be bd dd a7 91 be 74 b4 60 3e cb a5 b5 3c
       -0.09312464 -0.28448382 0.21943837 0.022173783
000080 a9 55 9a bd 78 49 08 be 30 b1 23 be ca c2 0d 3d
       -0.0753587 -0.13309276 -0.1598556 0.034609593
000090 84 d1 54 3d dd 2c 0f bb 2b e2 07 bd 25 e4 00 3d
       0.051957622 -0.002184681 -0.033174675 0.031467576
0000a0 10 79 17 be 2a 0c 37 bd 28 8a 89 be d8 e7 ad be
       -0.14792275 -0.044689335 -0.26863217 -0.33965945
0000b0 73 7a 52 3e 2a 61 20 3e a2 40 b7 bd 85 e6 52 ba
       0.20554523 0.15662065 -0.089478746 -0.00080452143
0000c0 88 b1 0e 3e 6b 34 0a be 28 be 6f 3e de ac 44 bb
       0.1393491 -0.13496558 0.23412383 -0.0030010263
0000d0 77 08 90 3c 89 ed bf 3e 96 23 98 be c0 0d e7 3e
       0.017582161 0.37485912 -0.2971465 0.45127678
0000e0 eb 61 b8 3d 17 3d 50 be 0b b5 d8 3d 84 88 87 bd
       0.09003051 -0.20335804 0.10581406 -0.06617835
0000f0 f2 6a 64 3d bc 01 a4 be 57 64 8c 3e 65 a0 5b be
       0.055766053 -0.32032573 0.27420303 -0.21447904
000100 ec 84 81 3e 68 19 13 bd 03 22 ae 3d ff 53 01 bf
       0.25296724 -0.0359129 0.08502581 -0.5051879
000110 e1 07 ce 3d 86 79 e1 be 26 19 d8 be 26 c0 3a be
       0.100600965 -0.44038028 -0.42206687 -0.18237361
000120 a1 0c 9b 3e 3e 2f 63 3c af f1 45 3e 85 11 13 3e
       0.30283073 0.013866244 0.19330476 0.14362152
000130 48 f1 d0 bd 5a a1 b7 be 66 59 b9 bd 8c 22 16 3e
       -0.10202271 -0.3586529 -0.090502545 0.14661616
000140 ff f6 3d be 65 99 25 be 2d ee d9 3d 5b a9 44 3e
       -0.18551253 -0.16171797 0.106411316 0.19205229
000150 4b 4c 0f be db ae cb bd bc 8b 74 bd d3 26 91 3c
       -0.13993947 -0.099454604 -0.059703574 0.017718708
000160 06 aa 32 be 56 e6 65 3e ab 67 4b bc 38 be a3 be
       -0.17447671 0.22451147 -0.012414853 -0.31981063
000170 7a 09 c9 3d ec 8c 6c 3d f9 db 4f bd cf 2a 08 3d
       0.09816261 0.05775158 -0.05074689 0.03324395
000180 1a 27 85 be 97 9a ed be d9 d6 9c 3e 7e 6b 39 bd
       -0.26006395 -0.46407005 0.30632666 -0.04526853
000190 9e f0 8d be 27 b0 95 3d 05 83 63 bc b2 1c 29 3e
       -0.2772264 0.07308989 -0.013886218 0.16514853
0001a0 7b 95 ae 3c 10 f7 02 3e 59 c7 b1 be 4d 4b d3 bc
       0.021311512 0.1278956 -0.34722403 -0.025792742
0001b0 4b c6 51 3e f0 6a 7a 3d e2 cd b9 3c a0 d8 b6 be
       0.20485799 0.06113714 0.02268118 -0.35712147
0001c0 9a fe 92 3e 42 75 f5 3c 18 54 dd be 6f 3d c1 be
       0.2870987 0.02996314 -0.4322822 -0.37742183
0001d0 40 cd 50 3d 10 b8 d3 3d 69 cb d3 3d a0 2f 9e 3e
       0.05097699 0.103378415 0.10341532 0.3089571
0001e0 c1 60 d2 3d 66 9e f5 3e 8b b4 85 3e fc d1 e4 ba
       0.102723606 0.4797241 0.26114306 -0.00174576
0001f0 c2 37 88 be 3c 1e 88 bd 89 58 c8 be 1a 9a b5 be
       -0.2660504 -0.06646392 -0.39130047 -0.35469133
000200 0f 9c 35 3e 42 b1 2a bf 21 b6 02 3e f9 59 44 3c
       0.17735313 -0.66676724 0.12764789 0.011984342
000210 df 49 15 bf 8a c1 1d bc e1 3a 46 be b6 b0 0a bf
       -0.58315843 -0.009628663 -0.19358398 -0.5417589
000220 31 e5 2c bf 46 25 06 bd e0 50 ae bd 58 20 1d 3f
       -0.6753722 -0.03275039 -0.085115194 0.6137748
000230 af e7 5d 3d c6 d5 58 bd ac 97 97 be e5 4e 88 be
       0.05417603 -0.052938245 -0.29607904 -0.26622692
000240 60 a0 02 bd 16 82 d1 ba 09 68 ac 3e 53 5b c1 3e
       -0.031891227 -0.0015984203 0.33673123 0.37764987
000250 96 c8 10 bf fc 93 b1 3d 06 5b 92 be a4 d3 c5 be
       -0.5655607 0.08670804 -0.2858507 -0.3863803
000260 26 e4 20 3c a0 8a 89 3c f2 c8 05 bf 0c aa e7 3e
       0.00982002 0.016789734 -0.52259743 0.45246923
000270 a1 da d0 bd f2 a6 9c 3d 3b ee db be ed 93 87 3e
       -0.1019795 0.0764903 -0.42955193 0.26480046
000280 19 0c d6 bb 72 9b e7 3c fa 4c da 3e 3e 1e cd 3d
       -0.006532204 0.028272364 0.42636853 0.10015534
000290 1d ed 53 3c 24 fa 96 bd 2e 8e 5b 3d eb b4 47 3b
       0.01293495 -0.07371929 0.05360239 0.0030472826
0002a0 8f 16 1f bd 38 5e e4 3b e0 bf 44 3e 95 03 08 3c
       -0.038839873 0.0069692396 0.1921382 0.008301635
0002b0 3e d3 cc be dd 41 1a 3e a6 93 8e 3d 13 2c dc bd
       -0.40004915 0.15064187 0.069617555 -0.10750594
0002c0 6f b4 a2 3e 7b 95 9d be 1f 5e fe be a6 5f c4 bd
       0.31778285 -0.30778107 -0.49681184 -0.09588556
0002d0 b9 f3 13 3e 89 7b 72 3d bc 99 2b bd 2e d2 ac be
       0.14448442 0.059199844 -0.04189466 -0.33754104
0002e0 ab 89 fa bc 18 9d 6f 3e 77 05 62 3d 82 14 b4 bd
       -0.030583223 0.2339977 0.055180993 -0.08792974
0002f0 00 9d 15 3d 14 97 1d 3e 5f 15 66 3e 5f 45 eb be
       0.03652668 0.15389663 0.2246909 -0.45951363
000300 14 b3 bb be b0 01 53 bd 7b e7 05 3e 9d e7 83 be
       -0.36660063 -0.05151528 0.13076584 -0.25762644
000310 a1 cd 23 bf 13 05 96 3e 15 82 14 bf 02 39 85 3e
       -0.6398564 0.29300746 -0.5801099 0.26020056
000320 f7 e8 6e 3e 4d ec a5 be d2 99 1e bf d4 f0 05 3d
       0.23331057 -0.32406846 -0.6195346 0.032700375
000330 0f df 20 3e be 0d ab be 16 6f 24 bd b5 c4 b8 3d
       0.1571009 -0.33408922 -0.040145002 0.09021894
000340 29 87 d2 be d3 21 f1 be b3 74 8d bd d6 1b 0b bf
       -0.41118744 -0.47096118 -0.06907024 -0.5433935
000350 41 3e 21 3e 3c 7f bd 3c 03 b7 ab bd 03 c7 15 be
       0.15746404 0.02313196 -0.08384516 -0.14626698
000360 de 59 b2 3e 6b 28 d3 bc 73 a4 09 bf a9 eb ad be
       0.34834188 -0.025776109 -0.53766555 -0.33968857
000370 73 c0 17 bf 01 ac ff 3c a9 ba e0 bd 72 ae ee bb
       -0.5927803 0.031209948 -0.109731026 -0.007283979
000380 09 93 57 bf 6c 98 f6 be 96 2b 9f be 77 73 aa 3d
       -0.8420873 -0.48163164 -0.3108794 0.083228044
000390 56 1e af 3e bc 65 98 be 3a 59 22 bd 53 a1 82 bd
       0.34202832 -0.29765117 -0.039635874 -0.063784264
0003a0 70 59 fd 3d 00 f2 0b bf fb 31 95 3e 42 ee 74 bc
       0.123705745 -0.5466614 0.29139695 -0.014949383
0003b0 09 8a 06 3e 1e 41 9b bd 19 77 a4 3e 60 44 02 bf
       0.13138594 -0.075807795 0.32122114 -0.5088558
0003c0 df 9c 21 be c0 98 fc bc 35 69 fd 3d 94 7f ee be
       -0.15782498 -0.030834556 0.12373582 -0.4658171
0003d0 f8 4b d4 3c e3 13 89 be 8e 6b 8f 3e 10 de a4 bd
       0.025915131 -0.26772985 0.28011745 -0.080501676
0003e0 35 40 ff be 93 de ad be 30 5e db be 2f 7c e2 3c
       -0.49853674 -0.33958873 -0.42845297 0.027647106
0003f0 c8 cb 03 be 2e 82 3f 3e e5 49 c6 be 59 ab 0d 3f
       -0.12870705 0.18702003 -0.38728252 0.5533958
